logsight/logsight_lib/log_quality/qulog_linguistic_attention/model.pth (torch, 485721 bytes, 53 tensors)

weight f4 [16, 16]
00000000: 781f 2a3e 3449 92be 89e6 b5be 617f 5dbe
00000010: efa5 32be 23a8 b83d 7eeb c8bc 6ce7 cc3d
00000020: ec10 34be 04f5 333e 5e59 85bd 4a33 9abd
00000030: df0c 373e 981e d8bd b5ef d1be 5362 3c3d
00000040: 2d6a 1cbe ebc4 07bf 6139 26be 3861 17bf
00000050: 3666 3b3d 5d86 343d 7aad 70be ad22 a3be
00000060: 89ec b93e 55f9 1dbf acac 53bd 300c aebe
00000070: 959e 223e 5948 febd 5529 95bb b822 e2be
00000080: 2e6a 9d3d 47fe e03c 07c0 1fbe b3b9 a53d
00000090: 8469 ed3d 81ff d1be c20c 34be 855d 34be
000000a0: a05a 43be 0dc1 d7be 7156 86bd bf40 39be
000000b0: bf69 b53d ab3d 93bd 1621 b53d e4a7 203e
000000c0: 45f8 663e 8c3f ce3d 67f4 3b3e b237 953e
000000d0: e4bc b13d 9354 35be d3d9 0bbd 75d4 68be
000000e0: cc68 5cbe f4f6 1bbe b803 a8bd ab67 b4bd
000000f0: e561 94be 8ab0 063e 4830 b8bd 1e3f 78be
00000100: a79a 093e 6601 1c3d f9ee da3d e368 fb3b
00000110: 1906 e03d 3aea e93e e8e6 573e 7bd3 fc3d
00000120: e395 7dbc 6d37 9f3e 6b4a 8c3d 9d60 683e
00000130: ca19 09be e11d 923d 8ad9 33bd ba6f 9e3e
00000140: a3b6 f73c 498d 96bc c941 a5bd 1e6b 763e
00000150: 1916 9e3e 470e fe3d 0f7f 3bbd f871 00bb
00000160: a01a e83d 098b 303d bc48 eabd aceb 723e
00000170: a025 823d 4128 38bc 7deb 013e df50 3bbe
00000180: 523a ee3d 9616 f1bd 0844 b8bd d9f7 2dbe
00000190: 0b33 2abd 3a6c 193d df2b 603e beb5 833e
000001a0: d859 433e b178 bcbd 6f86 05bd 312d d53d
000001b0: 0d2d c63b 6447 813d eb68 2d3e de40 6f3e
000001c0: ff5e ed3d 5cdb ca3e ed6a 0abe 3c72 f7bd
000001d0: 673f 023e 5b2f dc3e fd6b 263e 83fb 263e
000001e0: 2f82 d9bd d0c7 c83e d8f8 223e 4fb1 473e
000001f0: 81e2 943d 29a6 6b3d ba76 bc3e 449a eb3e
00000200: c1c3 4bbe 919b 593c 5720 a2bd 4405 55bd
00000210: bc98 49be 5077 193e f84e 3b3d dff9 f0bc
00000220: d082 a33d 6304 aabe 5cd2 073e ff59 47be
00000230: 11de 293e 9055 87bd c248 abbe a9aa a23b
00000240: ff42 49bd 8100 97be 65f5 a3bd 5639 cf3e
00000250: d260 683c a013 6dbd 5ba4 b0bc 4337 37be
00000260: a351 a5be 241f 113e 0748 bcbd 9520 553e
00000270: 565d 843e 0e7a 823d 5be0 2abe e556 d03d
00000280: 65e7 9fbd ba41 263e b686 6e3d 02d5 bf3d
00000290: 32a4 0cbe 8209 473e 285d c33d 8754 5dbe
000002a0: 8eb6 a5be 6127 e1bd b5e5 c2bc 8827 b7bd
000002b0: d2f3 483e fedd 903d 32d7 71bd 64a7 79be
000002c0: af19 d3bd 99aa eb3d 7e69 423e e799 30be
000002d0: 377c ce3e 75f4 6b3e 7043 c13d bb36 8cbe
000002e0: 902a 7b3e 2903 293e aad1 c63d 1701 61bc
000002f0: 0900 62be 3893 14bd ef47 2e3d 5310 e939
00000300: beb9 8a3c 03b7 ebbe 09e5 2d3a ceef 74bd
00000310: 4bd6 563d d03e 3bbe fe8d b8bd e153 673e
00000320: 833d 25bd 3fa6 85bc b0cf 05be a656 14be
00000330: 999b e33d 4ee3 b0bd a9b6 55be 63a3 3ebd
00000340: ba8b 74bc 5596 073e 8408 563d 1d01 c0ba
00000350: fb56 243e 3684 393d 8f98 af3c 0d87 af3e
00000360: 8cee 72be c9e4 04be b0cb c53c d7ab 893d
00000370: 1195 35be 34cb b73c 0c08 c4bc 9433 403e
00000380: efb7 953d 5f27 80be 601f 123e 3f0f bcbd
00000390: a568 50be 3fe4 babc bc00 6dbd 5886 ff3d
000003a0: 045c 4bbe 4e9f 9f3d f0dd c1bd fa3f e93d
000003b0: f831 3c3e 2e1d 803b 6c3e 27bc 303c 04be
000003c0: 2ee8 333c 60d6 733e a14c bc3d c6db 7e3e
000003d0: 882a a8be a920 413e 9d3a 73bd ab85 afbe
000003e0: 1c4b 4cbe 567d 0d3d fb3d 1e3d 8048 e8bc
000003f0: 57bc 0a3e fd81 16bc f762 fa3d 24b8 15be
0.16613567 -0.28571475 -0.35527447 -0.21630622 -0.17446111 0.090164445 -0.024526354 0.10005078
-0.1758458 0.17573935 -0.06511186 -0.07529314 0.17876004 -0.1055271 -0.41003194 0.045992207
-0.15274878 -0.5303485 -0.16232826 -0.5913272 0.045751773 0.04407345 -0.23503676 -0.31862393
0.36313275 -0.61708575 -0.051678345 -0.33993673 0.15880807 -0.12416143 -0.0045520463 -0.44167113
0.07686268 0.027464999 -0.15600596 0.0809206 0.11592391 -0.41015247 -0.17582992 -0.176138
-0.1907754 -0.42139474 -0.06559456 -0.18091105 0.0885806 -0.071894966 0.08844201 0.15689045
0.22555645 0.10070714 0.18354951 0.29144055 0.08678606 -0.17708044 -0.03414328 -0.22737296
-0.21524352 -0.15230924 -0.08203834 -0.088088356 -0.28980938 0.13153282 -0.08993584 -0.24242827
0.13437901 0.03808727 0.10690112 0.0076724156 0.10938663 0.45686513 0.21084177 0.12345024
-0.01547763 0.31096974 0.068501316 0.22693105 -0.13388744 0.07134605 -0.043908633 0.30944616
0.030238455 -0.018377917 -0.08069188 0.240643 0.30876234 0.12405067 -0.04577547 -0.001959918
0.11333203 0.043101344 -0.11439654 0.23722714 0.06354833 -0.011240066 0.12687488 -0.18292569
0.116322175 -0.11771886 -0.08997351 -0.16989078 -0.041552585 0.03745673 0.21891735 0.25724596
0.19077241 -0.092027076 -0.03259891 0.1040901 0.006047851 0.06312445 0.16934554 0.23364589
0.11590385 0.39620483 -0.13517351 -0.12082335 0.12719499 0.4300488 0.16252132 0.16306882
-0.10620534 0.39214945 0.15915239 0.19501232 0.07269765 0.05753151 0.3680933 0.46016133
-0.19898893 0.013281719 -0.079163246 -0.052006975 -0.1968717 0.1498692 0.045729607 -0.029416023
0.07983935 -0.33206472 0.1326384 -0.19467925 0.16588618 -0.066081166 -0.33453947 0.004964192
-0.049136158 -0.29492572 -0.0800579 0.4047343 0.01418324 -0.057880044 -0.021562746 -0.17892174
-0.32288846 0.14172035 -0.091934256 0.2081321 0.2585246 0.06370936 -0.16687147 0.10172824
-0.07807807 0.1623601 0.05823394 0.093668 -0.1373451 0.1943722 0.095392525 -0.21614276
-0.3236584 -0.10993839 -0.023791173 -0.08943087 0.1962426 0.07073592 -0.059043117 -0.2438026
-0.10307633 0.11507148 0.18985555 -0.17246209 0.40329143 0.23042472 0.09436691 -0.27385506
0.24527955 0.16505112 0.09707959 -0.01373317 -0.22070326 -0.03627321 0.04254907 0.00044453386
0.016934272 -0.46038064 0.0006633555 -0.059799008 0.05245046 -0.1828568 -0.09011458 0.22590591
-0.040341865 -0.016314624 -0.13067508 -0.14486179 0.11113662 -0.08637105 -0.2087046 -0.046542536
-0.0149258915 0.13240941 0.052254215 -0.0014648769 0.16048805 0.0452921 0.02143505 0.34282723
-0.23723811 -0.129779 0.024144977 0.06722229 -0.17732646 0.022435762 -0.023929618 0.18769675
0.07310473 -0.25030038 0.14269781 -0.091825955 -0.20352419 -0.022813914 -0.05786203 0.12476796
-0.1985932 0.07794057 -0.09466159 0.11389156 0.18378437 0.0039097285 -0.010207754 -0.12913585
0.010980649 0.23812246 0.09194303 0.24888524 -0.3284495 0.18860115 -0.05938207 -0.34281668
-0.19950527 0.034543358 0.038633328 -0.028354883 0.13548408 -0.009186265 0.12225907 -0.14621025

bias f4 [16]
00000000: c9f2 0ebe afaa ccbd 378a 2ebd 54b0 743e
00000010: 13dc a83e 4c4c 263e 8e32 3b3e e912 8e3d
00000020: ad5d 56be abfe 8bbd acff 883d 7c98 03be
00000030: 4501 d33b c024 463e d730 423e 5f37 57be
-0.13959803 -0.09993493 -0.04261228 0.23895389 0.32980403 0.16240042 0.18281004 0.069372006
-0.20934172 -0.068356834 0.066893905 -0.12851137 0.0064393603 0.19349957 0.18963943 -0.21017216

weight f4 [16, 16]
00000000: d46a ac3e faa0 c83e d669 7abc e6dc 5e3e
00000010: f7c4 e53d 02ce 0ebd e8f8 d3bd bb9f 24be
00000020: 6bbd 023e eb3f aabe d878 25be d83e 17bd
00000030: a3ae 97be 8642 a4bd e2fb 213e 987e 593c
00000040: 99dc 0ebe 9864 183f 1a4c a3be ec0f 12bf
00000050: 4f92 cfbd 621f 0a3e 1e64 b1be 9dee 763e
00000060: d706 d63e 02aa 163e aee1 51be 3a86 58bd
00000070: 98fa f53d 6b1b 1a3e 840f ddbe 8291 53be
00000080: 129e 933e ebff 683d 6dfd 86be c21d 99be
00000090: e085 113e 0faf 133e 4a0b 213d 88fa 39bd
000000a0: 2ec6 b43d 844a 75be e5b3 d73d befc ccbe
000000b0: 274f d4bd 3730 afbd 3cd5 9ebe b273 28bb
000000c0: 4da8 8f3e c1cf 49be 6384 71be 28e0 e4be
000000d0: c834 873e f1b9 30bd 0ee5 2f3e 434a 1cbe
000000e0: b231 b03e f856 90be e1d4 0b3e e8c2 023d
000000f0: 9c50 bc3e 6d32 b83d 8d9a 893e 6f0d 893d
00000100: 913c aa3d 4846 83be 89b2 d9bd a146 aebb
00000110: 4c49 6bbe cf27 b6be c446 64be 1613 5bbe
00000120: dc7a 21be 8e32 cf3e ac8d 02be 63bf 3fbe
00000130: bb2a 753e abd9 a33e 4acf acbe 0bd6 cfbc
00000140: a578 f93d 6b93 52be f64d daba 667c 933e
00000150: 83fe 33be 3e22 d2bd 36af 0d3d 61bb 8c3e
00000160: 90d3 bd3e 6837 643d 88b7 e63d 2693 a4be
00000170: d3da 22be 670d 33be 1d89 413e 2b34 a4bd
00000180: 9a58 c3bd 8c5f 4abe 8f57 bbbe 2734 e6be
00000190: 3732 5fbe e3ad 43bd 0f42 983e a257 b43e
000001a0: 29d5 b6be 9905 5f3e ab70 883e 4d09 5abc
000001b0: ec65 c6bb a48b 283e 31d6 0d3e 7064 62be
000001c0: 5d15 1a3e 26de 61be c197 e63e b430 5a3e
000001d0: e0b0 db3c 9e42 e13e 0c18 78be bad7 5e3e
000001e0: b10c 643e 110e 5dbe a51c 34be 2ca7 6c3a
000001f0: b9e6 79be 5790 99be b76b c23b 10cd 3f3e
00000200: ad9f 4d3e 3ede 143e 63dc 983e d2c4 0c3d
00000210: 01a7 d73d ecb2 8a3e b3f3 983e a9be 0c3e
00000220: cc52 b4be 9869 babe d528 73be 7ceb 153e
00000230: 88ff 8cbe 8401 b1be e6e4 97be ff31 55be
00000240: 6e36 6ebd 28ba 2e3e c3c8 3f3e 7263 1fbe
00000250: 06b0 15bd 67ab 843e bc96 dabd 2e76 b5bd
00000260: 0ed6 dfbd 3ee9 343e 337f 80bd 8fe0 d03d
00000270: 1a19 203c e983 b03c c316 cebd fdc4 79bd
00000280: 56dc f7bd 5186 eebc 4191 313e 04be b43d
00000290: 73d4 eabd d6fd 103e bf30 6a3c f2bc 59bd
000002a0: ec7b 1e3e 6050 043e f097 573d 56cd 1d3d
000002b0: e16b ac3d 0a0a 243d 2665 183d fa36 ff3c
000002c0: d76e 873d 06f2 cfbe 6307 c8bd c3e5 013e
000002d0: ca2e 90bd d45a ad3e 1fb5 20be 53e6 c5bd
000002e0: 2178 883e 28f5 b03d 649d 083d 9f75 81be
000002f0: de1f 813c 7747 af3e 9a36 873d 1071 743e
00000300: fc75 c53d bee0 973e a257 94be fcf3 2dbe
00000310: 1641 233e eb38 a2be df26 19bd 71fd 86bd
00000320: 0a94 4f3e d5a0 273e b0f3 f9bd c778 833e
00000330: 31b4 a1be 8bfb 0bbc 9db8 793e f655 b1be
00000340: d569 58bd 00e6 b3be 6492 dabd 5073 cb3d
00000350: c901 6c3e ed61 bf3e 61c7 1a3e 7e07 babd
00000360: 572d e83c 6e91 5b3c dd80 003e eac3 583e
00000370: 9f6d 583e 7f53 613e 3cba 91bd 2713 923e
00000380: 644c 473d 7ad6 883e deca bb3d 797b 30be
00000390: 1d88 113e e0bb a0be bfc4 513e 19c4 a2be
000003a0: 87ea 0dbe c337 77be 02b1 65be 4ead 32be
000003b0: 245e 0e3e 694d 693d dcc9 3a3e 1f0c 99be
000003c0: c4da b339 b78b 41bd 643e 44bc bcd3 08be
000003d0: d23e 9c3e 0ab6 b9be fc5d dabd 8577 bebe
000003e0: 4b30 85be 8586 a5be 757e 8a3e 1762 6bbe
000003f0: 070b 2fbe 281d 9abe fa0a 603e ebf8 f0bd
0.33675253 0.39185315 -0.015284022 0.21763954 0.11219209 -0.034864433 -0.103502095 -0.16076557
0.1276757 -0.3325189 -0.1615938 -0.036925167 -0.29625425 -0.08020501 0.15818742 0.013274811
-0.13951339 0.59528494 -0.31893998 -0.57055545 -0.10135328 0.13488534 -0.34646696 0.24114461
0.41802093 0.1471329 -0.20496246 -0.052862383 0.120106876 0.15049522 -0.431759 -0.20660976
0.28831536 0.056884687 -0.26365224 -0.29905516 0.14211226 0.14422248 0.039317407 -0.04540494
0.08826862 -0.23954207 0.10532359 -0.40036577 -0.103666596 -0.08554118 -0.3102206 -0.0025703725
0.2805809 -0.19708158 -0.23585658 -0.44702268 0.26407456 -0.043146078 0.17177221 -0.15262704
0.34412915 -0.28191352 0.13655426 0.03192416 0.3678025 0.08993993 0.26875725 0.066920154
0.083123334 -0.25639558 -0.10629756 -0.005318478 -0.2297718 -0.35577247 -0.2229262 -0.21394
-0.15769523 0.40468258 -0.12749356 -0.18725352 0.23942082 0.32002005 -0.337519 -0.025370618
0.12181214 -0.20564048 -0.0016655314 0.28805846 -0.17577557 -0.102604374 0.034590922 0.2748671
0.37075472 0.055716902 0.112654746 -0.32143515 -0.15903787 -0.17485581 0.18899961 -0.08017763
-0.09538384 -0.1976301 -0.3659024 -0.44961664 -0.21796499 -0.047773253 0.297379 0.3522311
-0.35709503 0.21779479 0.2664846 -0.013307882 -0.0060546305 0.16459519 0.13851239 -0.22108626
0.15047212 -0.22057399 0.45037654 0.21307641 0.026817739 0.43996137 -0.24227923 0.2176198
0.22270466 -0.21587397 -0.17589052 0.0009027596 -0.2440442 -0.29992935 0.0059332508 0.18730569
0.20080443 0.14537904 0.29855642 0.03436739 0.105299 0.27089632 0.29873428 0.13744606
-0.3521942 -0.36408687 -0.23746045 0.14640611 -0.27538705 -0.3457147 -0.29666823 -0.20819853
-0.058157377 0.170632 0.18728928 -0.15565279 -0.036544822 0.2591202 -0.106732816 -0.088604316
-0.109294996 0.176671 -0.06274261 0.10199081 0.00977161 0.021547275 -0.10062935 -0.06097888
-0.121025726 -0.029116781 0.17340566 0.08825305 -0.11466303 0.1415933 0.014293849 -0.053158708
0.1547696 0.12921286 0.052635133 0.0385259 0.08419014 0.040048636 0.037205838 0.031154145
0.06612938 -0.40614337 -0.09767034 0.12685303 -0.07040174 0.3385836 -0.15694092 -0.096630715
0.2665415 0.0864051 0.033353224 -0.2528505 0.015762266 0.3423421 0.06602211 0.23871255
0.09641644 0.29663652 -0.2897311 -0.16987604 0.15942797 -0.3168405 -0.037390586 -0.06591309
0.20271316 0.16369946 -0.12204683 0.25678083 -0.31582788 -0.008543859 0.2438683 -0.34635895
-0.052835304 -0.35136414 -0.10672453 0.099341035 0.23047556 0.373794 0.1511512 -0.0908346
0.028341932 0.013401372 0.12549157 0.21168485 0.21135567 0.22004507 -0.071155995 0.28530237
0.048656836 0.26726133 0.09169553 -0.17234601 0.1421208 -0.31393337 0.20485209 -0.31790236
-0.13858996 -0.24142365 -0.22430804 -0.17448923 0.139031 0.05695859 0.18241066 -0.2989206
0.00034304534 -0.047252383 -0.011977766 -0.1336202 0.30516678 -0.36271697 -0.10662457 -0.3720056
-0.26013407 -0.32329193 0.27049604 -0.22986637 -0.1709405 -0.3010037 0.21879187 -0.11766227

bias f4 [16]
00000000: 9af3 aeb5 6ace 2234 c209 51b3 05c7 1433
00000010: cd1d d534 f65f dcb2 385f 26b3 0887 4935
00000020: be58 83b3 7a79 1bb3 b914 2d34 1f42 b8b3
00000030: 3bf8 d132 40ed 0833 d4bf 54b3 978f f3b3
-1.3034908e-06 1.5162519e-07 -4.867048e-08 3.4639942e-08 3.9696025e-07 -2.5655009e-08 -3.8736488e-08 7.507483e-07
-6.116305e-08 -3.6199232e-08 1.611942e-07 -8.580195e-08 2.4443684e-08 3.1880745e-08 -4.9534563e-08 -1.1341688e-07

weight f4 [16, 16]
00000000: ce2c e1bd 6ed3 793e 55b3 16be 1694 ac3e
00000010: 3951 b2bd 3816 a5be 3341 66be 5368 7f3e
00000020: 6339 063e 9d5f 6fbe 6d1a 81be e41c acbe
00000030: 1377 0b3e 0a24 66be 97cf 323e db5e bd3e
00000040: 28d2 85be f719 313e c5a2 513d 7056 193d
00000050: 68de 173e 4bdd bfbe 1f03 37bd 506f 843e
00000060: 001e 863e 2f8b 0c3e 173e 4bbe 08d0 8f3e
00000070: b559 67bd ccda 723e 3637 373e e14f 923d
00000080: 94b8 9fbe 3818 b6be 1864 b6be a152 883e
00000090: 3c3d b23d c3ce 84be 235c 913e fceb 5a3e
000000a0: 99d1 79bd cc12 0d3e 5d2f 2cbd 2bc1 fcbd
000000b0: 5ba6 a23e 110b debd 3ee4 aabe ec9b 71bd
000000c0: 32cb e8be 856f d53e 3d21 c53e 0cdf 01be
000000d0: a7e3 f5bd cb9b a4bd 49e6 ab3e 533f 6a3e
000000e0: b26c 19bd 181f 39be 121e a6bd 414d 9a3e
000000f0: d37c 61be 026b d03d b394 bb3e 7cb1 db3d
00000100: d7ef c0bd a147 fbbd 1aee b7bc cef5 383e
00000110: 27c4 743e 6c6d 2f3d fa50 f1bd 09b4 d43d
00000120: 2eb7 843e 71c8 ccbe f054 bb3d 722a f93d
00000130: c2f8 4b3e cacf 0e3e 0ec4 923d ae9a e7bd
00000140: 0604 81bd 6dfc e93e bcd4 97bc f4fb d1be
00000150: d8f3 ac3b 4d43 653e 40f3 31bd cd4a 853e
00000160: 8117 2bbe 817f 3a3c e610 593e 0557 bcbe
00000170: d837 bd39 8581 2fbe 3872 823e 433d a83e
00000180: 8a3f eabd 0340 8f3e a878 433e 21f5 babe
00000190: 4638 08bd 2211 91bc 5fb0 143e fac7 133d
000001a0: c2af efbe 5e97 88be 0d34 8d3d 543a a4be
000001b0: 9aae 96be cdff 22bd afbe e13e 4a4a a33e
000001c0: 0ba0 36be a67d 19bf c0b0 b13d 150a b4bd
000001d0: 6e09 2cbd a98c 3dbe afb8 903d 302a 9cbe
000001e0: 3200 a63e ec25 b3be 5df7 3cbd 4ffd 91bd
000001f0: 6e50 14be c9a2 d03e 4719 e2bd 88ab 1dbe
00000200: 5980 7b3e 9305 e83d 2f92 eabb 3c44 3c3d
00000210: 97d7 ba3e 5af7 77be f623 b53e 6adc a6be
00000220: 25b1 a6be 389a 3b3e 9d75 863e 682f 71be
00000230: 4240 b43d 4b0a 2b3e f21a f33e 6dfc 8d3d
00000240: c053 843e e443 743e 3a0c 1a3e 2bb7 49bd
00000250: ac1f 85be 322b adbd 9222 f3bd 0300 043e
00000260: 3308 a13e f724 e33d ec7b 9fbd c28b ff3d
00000270: fa65 d33e d4d7 f03d 1a63 1ebd b476 863e
00000280: 589b e3bc 5723 473e 4d87 d23e 159f 97be
00000290: 15d3 33be 550e bdbe 2a6a 2abe da4e 6b3e
000002a0: 803c d43d 1888 80be 4cca 95bd 6da0 0ebe
000002b0: 3b51 f6bc 9dc4 08be 015a cfbe e055 87be
000002c0: e119 85bc bf3e 08bf 5b01 1f3e bef1 9e3e
000002d0: 2ff4 35be 7e93 be3e a800 1d3e 9572 9abc
000002e0: 5ff1 b8bd aad6 a0be e649 663d 0f80 04bd
000002f0: 3f6a a03d 7685 5c3c 0ea0 1dbe 501c d7bd
00000300: 38d8 0abe 2ca4 c9bc 1bf4 803e 9365 24be
00000310: d5ff 64be ad78 a3be e5a8 35be 3604 b93d
00000320: 66ea 4f3e 0c09 adbc c8cc ecbd a6b1 8bbe
00000330: cc52 1f3e 1829 7f3e 5ef6 7abe 296f c1bd
00000340: 9a72 74be 2daa 4abe 2f7a fb3d d69a 413e
00000350: 6b16 173e f1d5 13be 04fe b0bc b587 21be
00000360: de5f 22be a3e8 6ebe 4604 96bd dbff fc3d
00000370: 8bf1 4bbe 053f cabe 4239 9abe 69e5 59be
00000380: 66e4 0c3e 8666 923e f946 0bbe 75cd fbbe
00000390: b2b2 adbd e896 703e 56a3 043e 72c1 cf3d
000003a0: 2d48 d4be 6b8b 3a3e 0e26 733d 75ad d2bd
000003b0: 8a8c fc3d fa94 bebc 3d04 ea3e 5b28 923e
000003c0: b8ba 9ebe e80b 8dbe 0dd1 cd3e 6898 c33e
000003d0: 341b fbbd 926b cabd 63b6 2d3e 6669 b73e
000003e0: a758 fcbd 6c6d 2b3e d40a b4be 96f8 8b3e
000003f0: c94a 5abe ef63 513e 4e89 99be 7d8c 11be
-0.10994874 0.2439706 -0.14716847 0.3370673 -0.08706898 -0.32243514 -0.22485809 0.2494214
0.13107829 -0.23376317 -0.25215474 -0.33615792 0.13619642 -0.22474685 0.17462002 0.3698643
-0.261369 0.17295061 0.05118062 0.03743595 0.14830935 -0.3747352 -0.04468071 0.25866175
0.26194763 0.1372497 -0.19847904 0.28088403 -0.056482036 0.23716277 0.17892155 0.07144142
-0.3119551 -0.35565352 -0.3562324 0.2662554 0.08703086 -0.25938997 0.28390607 0.21379083
-0.060990904 0.13776702 -0.042037357 -0.12341531 0.31767544 -0.108419545 -0.3337726 -0.05898659
-0.45467526 0.41686645 0.3850192 -0.12682742 -0.12006312 -0.08037528 0.3357413 0.22875719
-0.037457176 -0.18078268 -0.08111204 0.30137065 -0.22020273 0.1017666 0.36636886 0.10727212
-0.09420746 -0.122695215 -0.022452403 0.18062517 0.23902951 0.042828962 -0.11783023 0.103859015
0.25921005 -0.39996675 0.0914706 0.12166299 0.19919112 0.13946453 0.07166301 -0.113088
-0.062995955 0.45700398 -0.018534057 -0.41012537 0.005278092 0.22388954 -0.043444872 0.2603363
-0.16708185 0.011382938 0.21197852 -0.3678514 0.00036090496 -0.17139252 0.25477767 0.3285924
-0.114379 0.27978525 0.19088995 -0.36515144 -0.03325679 -0.017708365 0.14520405 0.036079384
-0.4681378 -0.26677984 0.068946935 -0.3207575 -0.29430085 -0.039794732 0.44090793 0.31892616
-0.17834489 -0.5995735 0.086762905 -0.087909855 -0.04200118 -0.18510689 0.070664756 -0.30500937
0.32422024 -0.3498987 -0.04613434 -0.07128393 -0.14483806 0.40749195 -0.110399775 -0.15397465
0.2456068 0.11329188 -0.0071585397 0.04596351 0.36492607 -0.24215451 0.35379 -0.32590038
-0.32557026 0.18320549 0.26261607 -0.2355324 0.08801319 0.16703145 0.47481495 0.06932912
0.25845146 0.23854023 0.15043727 -0.04924695 -0.26000726 -0.084555045 -0.11871828 0.1289063
0.31451568 0.11091035 -0.07787308 0.124778286 0.4128874 0.11759916 -0.03866873 0.26262438
-0.027784035 0.19447075 0.4111885 -0.29613557 -0.1756099 -0.36924997 -0.16642061 0.22979298
0.10363102 -0.2510383 -0.07313976 -0.13928385 -0.03006803 -0.13356252 -0.40498355 -0.26432705
-0.016247692 -0.5322074 0.15527861 0.3104381 -0.1776893 0.37221903 0.15332282 -0.018853465
-0.09030413 -0.31413776 0.05622282 -0.03234869 0.07832765 0.013459554 -0.15393087 -0.10503447
-0.13559043 -0.024614416 0.25186238 -0.16054372 -0.22363217 -0.31928006 -0.1774021 0.09034006
0.2030426 -0.021122478 -0.115624964 -0.27283973 0.15558928 0.2491802 -0.24508044 -0.0944503
-0.23871842 -0.1979148 0.12279164 0.18906721 0.14754646 -0.14437081 -0.0216055 -0.15774424
-0.15856883 -0.23330931 -0.07325034 0.12353488 -0.1991636 -0.39501205 -0.3012181 -0.2127892
0.13759002 0.28593844 -0.13601293 -0.4918019 -0.08481349 0.23495066 0.12952933 0.10144319
-0.41461316 0.18217246 0.059362464 -0.102869906 0.12331493 -0.023264397 0.4570636 0.28546414
-0.3100183 -0.27548146 0.40198556 0.38202214 -0.12261048 -0.09883799 0.16964106 0.358226
-0.123215966 0.1674096 -0.3516451 0.27338094 -0.21317591 0.20448278 -0.29987568 -0.14213748

bias f4 [16]
00000000: e126 b13d 897d 6f3e f384 ba3d b8b7 723e
00000010: d946 5b3d 32bb 733e 1908 943e b87f 2bbe
00000020: ded4 23be d9a2 6ebb 33ab d83c 6c00 42be
00000030: 9f1f a23d c877 dd3d 4457 d33d c51e 33be
0.08649994 0.23387732 0.09107389 0.23702896 0.053534362 0.23801878 0.28912428 -0.1674794
-0.15999171 -0.0036412983 0.026448822 -0.18945473 0.079161875 0.10813862 0.10319379 -0.17492206

weight f4 [16, 16]
00000000: 9341 243c d896 a6be 8081 8cbe 8bc2 0abf
00000010: f0a9 f83c 46de 6ebe 244a b5be 4038 943e
00000020: ad4b 11be d00c b4be cada e0be 1572 393e
00000030: 0eae 42bd 317f 343e 96dd 8abe 260c 213e
00000040: 4caa c03d 4321 fdbd c0bd 97be ddbe 64be
00000050: 7bc4 36be f08c dfbc cb1c 9b3e 68c6 1e3e
00000060: d558 78be b9b2 b43d 4987 b6be ff70 c93d
00000070: 1f2d 27be b3b3 993e 049a a7be 4edc 74bd
00000080: 5581 2c3e 5608 873e bf76 a43e fd5d 9dbd
00000090: b962 e43d a4fa ad3e a1a5 973e 1939 b3bd
000000a0: ff7e cc3e c11e 8c3d 4ae5 523e 4574 303b
000000b0: 3e95 1abe d597 ffbd 54ae 93bd b007 4cbe
000000c0: e4bd c33d f166 143c a4dd 093e bbca d1bc
000000d0: 315c f73d 9751 9abe 81a4 993e 5f9d f93d
000000e0: 84fc bdbc c5a2 6e3d 3859 4fbe 21bf 35be
000000f0: c562 9e3e 212b 803e 8fe8 64bd 2556 ff3c
00000100: 077c a33d 515f acbd cb8d 3139 5fd6 573e
00000110: 6625 5e3e 97b8 b83e d6ca cdbd f665 aabe
00000120: fe22 1b3e 6364 9abe 1208 74be 8c45 423e
00000130: 16f7 8c3d d1d7 153e 41e3 0dbd 8707 b9be
00000140: 0f3b 24be e706 043e 297e bebe bffe 893c
00000150: 3e8c afbd dd59 a53d 3bd2 84be b3f8 8c3d
00000160: 9bff 76be cb60 60be acb6 f7bd 1634 e6bc
00000170: cbc4 bf3b 6885 cd3e 1195 d0be ce48 383c
00000180: 7926 b23e 21e9 fa3e 9542 08be 391c 6f3e
00000190: 1df9 433e 202c f53e 7b96 d43e 3b58 7e3d
000001a0: e7ac cf3e d9f9 33be efa0 83be 161c 62be
000001b0: 3f0a 77bd 6d36 5bbe 5a39 183d 6609 95be
000001c0: 494e 0ebd f5d5 8b3c 90f0 cc3e 25ac e03d
000001d0: 2edf 36be 2024 76bd e9d6 35be 3f66 923e
000001e0: 5526 89bd ddca 42be 4b72 993e 8624 683e
000001f0: a997 5fbe fe42 153e 0df2 7e3e 1621 bb3e
00000200: df5c 7abe 39f3 f93d 1555 15be 514a 73be
00000210: 18a5 3fbe 4ff3 dabb 34f2 53be bbdf e3bc
00000220: 3ffb 9dbd b8d3 b13e f50a b8be 7b3e a3be
00000230: d389 a93e db3d 7d3e 4d0f 44be 3e3b c6be
00000240: 0347 00be 9725 273e 332a 29be d86a d3be
00000250: e542 913a 6318 db3c c97c cfbe 3740 04be
00000260: e9d7 b5be 2399 a5be bfc9 133e fc51 ce3e
00000270: eb05 523e 5a1c 32be b922 debe 901b 1c3c
00000280: 3a39 4ebd 2346 463e 9456 96be 8a33 923e
00000290: afe4 99be 0a5e f13d a85f ae3c 5197 64be
000002a0: ada2 41be 3c25 81be aa0f 89be f9fa 82be
000002b0: 45fe 89be 1b09 ad3e eb6b 993e 2f49 e8be
000002c0: d2ef bebd a4b0 01be e42f e03d 1e71 79be
000002d0: 33b5 453d caac 2c3d 1491 7f3e 0122 383e
000002e0: 2dd6 2d3d 7049 ddbd be3f 8dbe fc44 4cbe
000002f0: 8b79 81be 71f7 01be caa4 4c3e d2ab d6bc
00000300: 6d2e a6be 775f f3bd 553c 63be dd56 9bbd
00000310: aef9 843e d208 d13e 50d9 493e a5e5 a3be
00000320: 6b3a a1bd 5b93 36be bfcf 45be c12c 29bd
00000330: 8cc5 db3d 6b65 06be f97a a23e 6c16 20bd
00000340: 42fd c03e f415 ec3e 13d1 87be 5d77 14be
00000350: ebcb b4be 8724 d03e 42cd 593e 6d40 f6be
00000360: 71ef a53e 319d 8abd 40eb 66bd d143 453e
00000370: 4f7e 12bd ae06 c6be 030f 91be ab03 013e
00000380: c33b 04bd 6d6a afbd a523 ae3e e5d5 083d
00000390: 2d63 823c 8caf 893e f083 7c3e 5100 c83e
000003a0: 406d 8d3e 00c5 0b3e 8fd3 163e 7044 4cbe
000003b0: c9b6 463d a04d 463e 0731 163e 52e2 3ebd
000003c0: 350c 33bd 77ab 853e 056e a4be 74be c9be
000003d0: 3433 65bd 7fa4 df3d 9001 863e 567b 7b3d
000003e0: b94f 78be 1a13 ae3e 68c5 593e 76c3 fdbd
000003f0: 7c06 8cbd 5811 7ebe 0599 a8be b9cc ce39
0.0100254 -0.3253696 -0.2744255 -0.542031 0.03035447 -0.23326978 -0.35408127 0.28949165
-0.14189024 -0.35166025 -0.43916923 0.18109925 -0.047529273 0.17626645 -0.27122182 0.1572729
0.094074816 -0.1235986 -0.29636955 -0.22338434 -0.17848389 -0.027288884 0.30295405 0.15505373
-0.24252637 0.08823151 -0.3565009 0.098360054 -0.16325806 0.30019912 -0.32734692 -0.05978041
0.16846211 0.26373547 0.32121846 -0.076839425 0.11151642 0.33980286 0.29618552 -0.08751125
0.3994064 0.06841803 0.2059528 0.002692477 -0.15095994 -0.124801315 -0.07210985 -0.19924808
0.09557703 0.009057746 0.13463455 -0.025609365 0.12078131 -0.30140373 0.3000832 0.12188219
-0.023191698 0.058260698 -0.20248878 -0.17748691 0.3093473 0.25032905 -0.055885848 0.031169007
0.07982641 -0.08416618 0.00016932857 0.2107787 0.21693954 0.3607833 -0.100484535 -0.33280915
0.15150067 -0.30154714 -0.23831204 0.18971843 0.068830654 0.14633109 -0.034640554 -0.36138555
-0.16038154 0.12893258 -0.37205628 0.016845105 -0.08571671 0.08073781 -0.25941643 0.06883373
-0.24120943 -0.21911924 -0.12095389 -0.028101008 0.005852317 0.40140843 -0.4073873 0.011247827
0.34794977 0.49005988 -0.13306649 0.2335061 0.19137998 0.47885227 0.41521057 0.062095862
0.40561602 -0.17575778 -0.2570872 -0.22081026 -0.060312506 -0.2140748 0.03716407 -0.29108733
-0.034742627 0.017069796 0.40027285 0.10970334 -0.17858574 -0.060093045 -0.17757763 0.28593633
-0.066967644 -0.19022699 0.2997001 0.22670183 -0.21835198 0.14576337 0.24897023 0.3654868
-0.2444949 0.12204594 -0.14583237 -0.23758818 -0.18715322 -0.0066818367 -0.20697862 -0.027816644
-0.07713937 0.3473184 -0.3594586 -0.31883606 0.33112964 0.24730627 -0.19146462 -0.38717073
-0.12527089 0.16322933 -0.16520004 -0.41292453 0.0011082558 0.026745027 -0.4052489 -0.12915121
-0.3551629 -0.32343397 0.14432429 0.40296924 0.2051007 -0.17393628 -0.43385866 0.009528056
-0.050347544 0.19362693 -0.2936293 0.28554946 -0.30057284 0.11785515 0.021285847 -0.22323348
-0.18909712 -0.2522372 -0.26769763 -0.25582102 -0.26951805 0.3379601 0.29965147 -0.45368335
-0.09323086 -0.1266504 0.109466344 -0.24359557 0.04826851 0.042156972 0.24957687 0.17981721
0.042440582 -0.10805023 -0.27587694 -0.1994819 -0.25288042 -0.12692048 0.19984737 -0.026204977
-0.32457295 -0.11883443 -0.22190984 -0.07584927 0.2597174 0.40827042 0.19711804 -0.32011142
-0.078724705 -0.17829649 -0.1931753 -0.041302446 0.107310385 -0.13124625 0.31734446 -0.039083883
0.3769322 0.461105 -0.26526698 -0.14498658 -0.35311827 0.40652868 0.21269706 -0.48096028
0.32409242 -0.06768263 -0.056376696 0.19264151 -0.03576499 -0.3867697 -0.28331766 0.12599055
-0.032283556 -0.08565221 0.3401157 0.03340711 0.015916431 0.26891744 0.24659705 0.3906274
0.27622414 0.13649368 0.1472914 -0.19947982 0.04851416 0.19365549 0.1466714 -0.046602555
-0.043712813 0.2610738 -0.32115188 -0.39403117 -0.055957034 0.10920047 0.26173067 0.06139692
-0.24249162 0.33998948 0.21266711 -0.12390797 -0.06837174 -0.24811304 -0.32929245 0.00039443912

bias f4 [16]
00000000: bbd6 cabd ba2c 633e 82e5 283d 251c 013e
00000010: 8c85 353e d5c1 cf3d 7f84 2a3e de2c 04be
00000020: 1cc4 f0bd 93b8 2dbe 4962 063c 08d0 ddbd
00000030: 5721 b53d f568 4c3e 2ba9 063e 60fe 32be
-0.09904238 0.2218503 0.0412345 0.12608393 0.17726725 0.101443924 0.16652106 -0.1290774
-0.11756155 -0.1696494 0.008202144 -0.108306944 0.0884425 0.19961913 0.1315047 -0.17479849

attn f4 [213, 2, 16, 16]
00000000: ffcc 6b3a 8eaa 473e 736d 3c3e e330 cd3e
00000010: 130f 093e bff7 7c3c cd5e 553b aad0 633b
00000020: a500 363c 3b3a ba3c ec5d 233c 3d97 b73a
00000030: 4db6 9d39 8516 c039 39ac 103b 4a92 793c
00000040: a3c4 423b 642a 863e 1f36 113e 64eb 7c3e
00000050: 9b9f c93d 726a 9a3c cf9d db3b 65ae 173c
00000060: e732 ef3c e6d1 6d3d d785 013d 579c e83b
00000070: 49e4 1c3b e507 583b 533a 763c 5fa2 873d
00000080: f576 b83b 8692 443e 5511 273e c50d 893e
00000090: 781a 113e bc0e 163d 6cfa 4f3c 4315 423c
000000a0: 78f3 c13c 70e4 253d cb0f e93c 29d5 1b3c
000000b0: b0eb 763b ee63 873b 58e1 4e3c 0688 3c3d
000000c0: 130b ff3b 24d5 233e 0053 203e d8b8 7f3e
000000d0: 8089 1b3e 5e81 413d a099 903c e373 783c
000000e0: afc1 d73c e2a6 303d 7c70 0b3d a82f 613c
000000f0: e713 c53b 601e c83b 6b94 7d3c 0c3a 493d
00000100: efff fb3b 7845 0e3e 1763 1f3e 07af 843e
00000110: 82ff 2b3e 8926 5b3d 7ecd 9c3c 76bb 783c
00000120: 0976 cc3c 117e 283d 4f5d 0b3d 55ac 673c
00000130: d7df c43b aceb b93b c756 5e3c b23a 313d
00000140: 576e b83b 0c37 0a3e 4e8c 243e e171 933e
00000150: 6ebd 363e 6ee9 4c3d 596f 833c 2f47 4d3c
00000160: 3a49 b33c ef9b 1a3d b2dd f33c 5cf8 313c
00000170: f717 863b 647b 783b 2b9f 223c 31cd 113d
00000180: dbc2 8c3b c595 123e 08ee 293e 0684 9c3e
00000190: a04a 323e ac5c 313d a1f3 573c 1f6d 313c
000001a0: 3ea2 a93c e569 163d 7af6 da3c 11e1 0b3c
000001b0: ebb4 423b b701 3b3b 04e7 083c 2f95 053d
000001c0: ab16 9e3b b143 1d3e 9739 2b3e 2281 943e
000001d0: a3ff 253e 5911 2d3d c3d4 643c 197d 473c
000001e0: a2f8 be3c 9212 233d 7bed e73c e856 183c
000001f0: d1fb 613b b614 633b 766b 233c 6c53 143d
00000200: b729 013c 7f62 1c3e 3bd4 243e 9715 7f3e
00000210: 19b0 1b3e 7e58 4a3d ff5d 9f3c ed96 8b3c
00000220: 636d eb3c dea6 363d f3e3 0a3d ab19 603c
00000230: 1664 c73b 684d c93b 8d82 723c 2ff2 313d
00000240: 1c72 573c a07b 0f3e c3f6 193e 7c3b 5a3e
00000250: a510 183e 09a4 7a3d e868 e33c f6cc bb3c
00000260: c51e 053d ecca 3b3d a641 1e3d 9736 a13c
00000270: f5b4 293c 8725 243c 9d25 9f3c 721a 3e3d
00000280: 7c5c 823c 4a5a 093e a51b 173e 0ce4 543e
00000290: 1d7a 1e3e 0bb3 8c3d b1fa 003d d2f4 c63c
000002a0: 55e7 003d c695 2f3d 04e0 1a3d 3591 aa3c
000002b0: e786 393c 160b 2b3c 83b1 973c 3e03 2c3d
000002c0: c31d 553c 45db 153e f8a6 1f3e d760 6e3e
000002d0: 4b57 273e 9558 823d 158f d73c 6b9e a43c
000002e0: d4da e13c c61a 1f3d 6782 043d 146a 803c
000002f0: 6b71 fb3b 41b7 e73b 9e6a 633c d007 113d
00000300: 3b34 153c 2759 313e 4f17 293e fdb2 843e
00000310: 69aa 223e 55af 4e3d e251 9a3c f939 7c3c
00000320: 8eda c73c 8aba 143d 587e dc3c bba0 2d3c
00000330: 80b7 953b 3e9f 923b 48ad 2e3c 78c3 023d
00000340: 8773 023c 1dba 4f3e 9a6c 2b3e 774a 843e
00000350: 8b6b 123e 139e 293d ea27 7e3c 0b00 653c
00000360: f05d c93c 598b 183d d285 d03c 5275 143c
00000370: 1965 7a3b 6335 853b 3da3 323c f9cd 0c3d
00000380: ea08 243c f015 5e3e a392 253e 297d 6d3e
00000390: ba12 043e b1d1 263d 8b0d 8b3c c975 843c
000003a0: c6dc e53c a664 283d 1964 e93c 615a 343c
000003b0: 0d73 a83b ceed bb3b f1b3 713c d173 2d3d
000003c0: 8a74 683c d333 543e 9d96 1b3e d039 523e
000003d0: f00d fe3d 1b97 3b3d 9d6f ad3c 1857 a23c
000003e0: 5fd7 003d e302 353d 21f7 073d 6f2e 773c
000003f0: 845e 023c a590 0f3c b56b a23c d7ec 4c3d
0.00089950854 0.19498655 0.18401127 0.4007636 0.13384657 0.015439927 0.0032557726 0.0034761825
0.011108552 0.022732845 0.009971123 0.0014006865 0.00030081198 0.00036637872 0.002207531 0.015232632
0.0029719255 0.26204216 0.14180802 0.2469917 0.098448955 0.018849585 0.006702162 0.0092578875
0.029199077 0.058061503 0.03162178 0.0070987153 0.002393978 0.003296369 0.015028554 0.06622767
0.005629415 0.1919652 0.16315205 0.26768318 0.14170253 0.036635146 0.012693983 0.0118458895
0.023675665 0.040501058 0.028449913 0.009511271 0.0037677102 0.0041317856 0.012626968 0.04602816
0.0077833026 0.15999275 0.15656662 0.24972856 0.15189171 0.047242515 0.01765138 0.015164348
0.026337473 0.0431279 0.03404282 0.013744272 0.0060143354 0.0061071366 0.01547728 0.049127623
0.007690422 0.13893688 0.15565144 0.25914785 0.16796687 0.053503547 0.019140955 0.015181413
0.024958627 0.04113585 0.034024533 0.014140208 0.006008129 0.005673846 0.013570494 0.043268867
0.005628388 0.13497561 0.16069147 0.2879782 0.17845699 0.050027303 0.016044306 0.0125291785
0.021885503 0.037746366 0.029768799 0.010862436 0.0040922123 0.0037915343 0.009925644 0.035596076
0.0042956895 0.14314945 0.16594708 0.30569476 0.1741128 0.04330127 0.013180644 0.010829239
0.020707246 0.036722083 0.026728857 0.008537547 0.0029709886 0.0028534958 0.00835586 0.032612976
0.0048244796 0.15357853 0.16721188 0.2900477 0.16210799 0.042252872 0.013966742 0.012175822
0.023311917 0.039812632 0.028311482 0.009298064 0.003448237 0.0034649796 0.009974351 0.03621237
0.007883481 0.15271948 0.16096584 0.2491058 0.15203895 0.0494008 0.019454 0.01703974
0.028738683 0.04459273 0.033908796 0.013677995 0.006084929 0.0061432607 0.014801634 0.043443855
0.013149764 0.14012003 0.15035538 0.21311754 0.148501 0.061191592 0.027759984 0.022924881
0.032500047 0.04584782 0.038636826 0.01967935 0.010358085 0.010018713 0.019427115 0.04641194
0.01591324 0.13413349 0.1475664 0.20790118 0.1547627 0.06870087 0.031489078 0.024286661
0.031470615 0.042867444 0.037811294 0.020821193 0.011323667 0.010439655 0.018517261 0.04199528
0.013007584 0.14634426 0.15591037 0.23279129 0.16341893 0.06364552 0.026313344 0.02009507
0.027570166 0.038843893 0.032350924 0.015675582 0.0076734326 0.007071406 0.0138804 0.03540784
0.009106691 0.17319165 0.16512798 0.25917807 0.15885319 0.05046018 0.018837873 0.015394681
0.024396207 0.03631071 0.026915714 0.010597403 0.004568994 0.0044745496 0.010661431 0.031924695
0.007962114 0.2028584 0.16740647 0.25838062 0.14298837 0.041410517 0.015512446 0.013977061
0.024580926 0.037242267 0.025454435 0.0090611745 0.0038207232 0.004065202 0.010903177 0.03437612
0.010011891 0.21688056 0.16169219 0.23192276 0.12897769 0.04072732 0.016974231 0.016169446
0.028059375 0.04111161 0.028490113 0.011007876 0.0051406682 0.0057351356 0.014752374 0.04234678
0.014187941 0.20722894 0.15194173 0.20529866 0.12405002 0.045798402 0.021171385 0.01981692
0.031455394 0.044192206 0.033194665 0.015086754 0.007957105 0.008762513 0.01982675 0.050030556

weight f4 [16, 16]
00000000: 1913 a4be 79dd e9bd 646e ca3e fe1c 51be
00000010: cc8d 76be aa4b d1be 98e4 cb3e e206 c93e
00000020: 8601 51be a1f4 3ebe a271 3c3e 0805 78bd
00000030: 6b24 58bd d172 76bb 0345 c9be 3c27 05be
00000040: d9dc d03e 2743 c93e 1a4b 9d3e 0a2c b43e
00000050: 0409 acbd db33 a63e e9c8 89be 147d 5d3e
00000060: 4c61 29be 27f6 d5be 8c11 563e 5ea3 d73e
00000070: 7872 adbe 4aad a53e e231 d33d 6cf0 c6be
00000080: 5e4f fc3d a788 b23e f356 9c3e d515 9abc
00000090: 117a a8bd 1eb9 d3bd 20cd d8be cab0 3dbe
000000a0: 1ea1 d13e f8ac c9be a238 0f3e 0570 0f3d
000000b0: fa0a 8bbe 1275 c53e 4a66 bebe 6a79 9c3e
000000c0: da66 253e 3d25 d4bd f9c9 6e3e fd0a 52be
000000d0: 6631 953e 46b1 983e 7cd3 11bd 31fb d6be
000000e0: 6dce dabe 2c63 57be e821 c03e b4b3 55be
000000f0: 5338 c7be a50e 2e3e de01 d23e c222 983e
00000100: ac94 c23d e624 733e 244b c5bd ffe1 bebd
00000110: d101 5a3e 99c9 dd3d 8046 a1be cde8 d23e
00000120: d328 d73e 50b7 4fbd 5cac 9d3d 47e4 e43d
00000130: 9ca9 a13e b841 56bb 1729 ae3e 4ed4 9dbc
00000140: b832 933e 5f8d 5b3e 67eb 503d 9e9a 5dbd
00000150: 7e2f b73c f35a 4bbc de30 b1be 5dac d13d
00000160: 128a 2fbe c755 83be 1aed c2be 1973 ddbe
00000170: 9e66 103e 5cf4 acbd b9c6 8a3e 1b46 c23d
00000180: 43cb b7be 3d62 163d a86f 63be 2001 0cbe
00000190: 2ed0 3f3e c6be b13e 014b 06be 426f 88be
000001a0: 4c91 d2be c5b6 693e 96be bcbe bd9d 193e
000001b0: 5149 e4bd cb8e 0bbd f695 923e 9fe3 b53e
000001c0: 6ade d33d 073b 1cbe 742d 913e 375d afbe
000001d0: 18a0 263e 2777 bc3e 7749 213e a07d 13be
000001e0: 1d46 31bc 4f1b 8c3b 5015 b83d f5f3 aa3e
000001f0: b21f 7cbe ae47 a93e b436 223e 1322 ca3e
00000200: 33df 37be 68e2 2a3c 62ab 0a3e 7513 b83e
00000210: 16c8 9a3e 1b76 ab3e 5a16 93bb 0a0b fbbd
00000220: 6f09 af3e 2807 b43e 614b ae3e 6355 9cbe
00000230: caa7 61bd 1019 e73d cf3c 013e 7eea c9be
00000240: a778 acbd e480 57be f43e 433e 7889 04be
00000250: 9d1f dabe a0c0 c1be bf1d 3ebe 02fc 8fbe
00000260: 9e20 7abc 6f09 173b c262 553e 562d 503e
00000270: abb9 94be 8d00 8b3d 6743 643e e21d a33e
00000280: 26cd 93be 9e20 3cbe 90eb 4d3e 9d98 c3bc
00000290: ac62 713e 2aaa babe c826 28be f0ca a43e
000002a0: 5f55 763e 338c 813e 99aa c83e a81a 093e
000002b0: 2d20 8639 53ce 463e 5fe1 983e b9ab cabe
000002c0: ad19 68bd 3840 9a3e cd2b cf3d 2b99 a4be
000002d0: d61d b8be d94d a33e a265 7d3b d1a7 9b3e
000002e0: 566d 963e 88e4 9dbe 9b02 bc3e 3d26 d83e
000002f0: ad06 60be a1d0 9bbe a969 81be 38f1 943e
00000300: f04b 613d 0bf4 913d 41fb 8d3e db3d 863e
00000310: 3f2e 18be 1758 cfbe 4f75 c8be 26f9 6a3d
00000320: b60d 0a3e aecf 86bd 9689 a03d 2ba1 953d
00000330: 31cf c43d 18b7 8fbe e16d 67be 62b7 8fbd
00000340: 5f36 aebe cf06 cd3e 2234 f03c 24de d4be
00000350: b688 98be 66ad 9f3d 1f91 dabe 7288 583d
00000360: 7d69 d13d fd85 3abe e28d 983e 66c7 c0be
00000370: 9fc9 bdbe 5eb2 cabe 1c33 ecbd 23f5 d43e
00000380: dbfc 123d be80 193e 12e6 2cbe 2c21 22be
00000390: 9565 923e 7cca 8fbe cca7 9f3d 3f66 bd3d
000003a0: 2634 923e 13f6 1cbe 5c71 0abe 6339 80be
000003b0: d437 933e 5473 d5be b3bc 163e 6d66 97bc
000003c0: cd96 c4be 0318 cfbe 49c4 d5be e6b6 36bc
000003d0: 9bef 94be a8b7 50be c424 c23e 218d 9abd
000003e0: aefc 923e 799a 013e 97e4 9a3e eec1 a6be
000003f0: 1443 aebd f340 61bc cf38 17be c79a 2ebe
-0.3204582 -0.11419196 0.39537346 -0.20421216 -0.24077529 -0.4087804 0.3982284 0.39263064
-0.20410737 -0.18648006 0.18402722 -0.060551673 -0.052769106 -0.0037605057 -0.39310464 -0.13003248
0.40793493 0.39309046 0.3072136 0.3518985 -0.08400157 0.32461438 -0.26911095 0.21629745
-0.16541022 -0.41789362 0.20905131 0.42116827 -0.33876395 0.32358772 0.10312249 -0.38855302
0.123198256 0.34869882 0.30535087 -0.018809238 -0.08226407 -0.10338043 -0.42343998 -0.18524471
0.40943235 -0.39389777 0.13986447 0.03501894 -0.27156812 0.3856588 -0.37187415 0.30561382
0.16152516 -0.10358665 0.23319234 -0.20512004 0.2913925 0.2982275 -0.035602078 -0.4198852
-0.42735615 -0.21033925 0.37525868 -0.20869333 -0.3891016 0.16997774 0.4101705 0.29714018
0.09501013 0.23744544 -0.096334726 -0.09320449 0.21289755 0.10829467 -0.314991 0.41193238
0.42023334 -0.05071193 0.076988906 0.11176353 0.31574714 -0.003269298 0.34015724 -0.019266274
0.28749633 0.21440648 0.051005747 -0.054102533 0.022361513 -0.012411821 -0.34607595 0.10237954
-0.17142513 -0.2565138 -0.3807152 -0.43251875 0.14101645 -0.08445045 0.27104738 0.09486028
-0.35897264 0.03671478 -0.22210562 -0.13672304 0.18731758 0.3471586 -0.13114549 -0.26647383
-0.41126478 0.22823627 -0.36864156 0.15001579 -0.111467965 -0.034071725 0.28630036 0.35525224
0.103451565 -0.15256892 0.2835499 -0.34250805 0.16272008 0.36809656 0.15750681 -0.14403391
-0.010819939 0.0042757164 0.0898844 0.3338925 -0.24621466 0.330625 0.1584118 0.39479122
-0.17956237 0.010429956 0.1354194 0.35952345 0.30230778 0.33488545 -0.0044887485 -0.12257965
0.34186885 0.3516171 0.34041885 -0.30533895 -0.055091657 0.11284077 0.12620853 -0.39436716
-0.0842145 -0.21045262 0.19066983 -0.12943065 -0.42602244 -0.37842274 -0.18566035 -0.28121954
-0.015266566 0.0023046394 0.20838454 0.20329794 -0.29047903 0.067872144 0.22291337 0.31858736
-0.28867453 -0.18371817 0.20109391 -0.023876483 0.23572797 -0.3645795 -0.16421044 0.3218608
0.24056004 0.25302276 0.39192656 0.13389075 0.00025582445 0.19414644 0.29859444 -0.3958414
-0.05666511 0.3012712 0.10115776 -0.32148108 -0.35960263 0.3189533 0.0038665314 0.3040147
0.29380292 -0.30838418 0.36720738 0.42216673 -0.21877547 -0.3043261 -0.25275925 0.29090285
0.05500406 0.071266256 0.27730754 0.26219067 -0.14861391 -0.40496895 -0.39152 0.057366513
0.13481793 -0.065825805 0.078387424 0.07306131 0.09609831 -0.28069377 -0.22600509 -0.07017399
-0.34025857 0.40044257 0.029321734 -0.4157573 -0.29791802 0.07796745 -0.42688844 0.0528645
0.102251984 -0.18215175 0.29795748 -0.3765213 -0.37067887 -0.39589208 -0.11533186 0.41593274
0.035885673 0.14990517 -0.1688464 -0.15832967 0.28593126 -0.2808417 0.077956766 0.092480175
0.2855541 -0.15328245 -0.13519806 -0.25043783 0.2875353 -0.4168955 0.1472042 -0.018481458
-0.38396302 -0.40448007 -0.41751316 -0.011152005 -0.29089054 -0.2038256 0.37918675 -0.075464495
0.28708404 0.12656583 0.30252525 -0.32569832 -0.08508888 -0.013748395 -0.14767765 -0.1705123

bias f4 [16]
00000000: 80c7 32bb c8da 72be 2039 63bd ccd3 b6bd
00000010: eeeb 60be 78e2 51be 3c63 8dbd 50f1 563d
00000020: ca90 5f3e 0435 b1bd 186d 143e a013 2cbc
00000030: 00bf d63c 5896 353e f64f 553e b8b8 1f3e
-0.0027279556 -0.23716271 -0.0554744 -0.08927116 -0.21965 -0.20496547 -0.06903693 0.052476227
0.21832576 -0.0865269 0.14494741 -0.010502726 0.026214123 0.17733133 0.20831284 0.15597808

weight f4 [16, 16]
00000000: 7f68 60be ec64 c7be 95c7 43be 1fd7 063d
00000010: ba46 983e a850 e03d 164a d33e 66d0 5ebe
00000020: b745 19be 230b 143e 8dc3 bebe b095 90be
00000030: 31de c4be 6622 ca3e d6ce fc3c 8a8b a63d
00000040: 4fa6 c63d 5c50 d13e cc29 28be 8dd5 0bbe
00000050: 499a c43e c709 a7be 09cb 6dbd 6e1e f33d
00000060: a991 1abe fc55 f43b a9bb 483e 6fbf 91be
00000070: 1bf3 9dbd d400 483d 4b40 483e c4c6 bebe
00000080: 7f2f 913e a658 0fbe 49e8 743d adf7 90be
00000090: 79f2 96be c2ca 7e3d f50a 443e 4c9a b23d
000000a0: 51f2 a33e 2782 393e 4260 46be 299c bfbe
000000b0: dfef 033e b118 ba3e 3004 99be 3410 9f3e
000000c0: 3a5b 1dbe a0f5 2d3c 7fea 033d 3732 c73e
000000d0: 2a07 4e3d 462f 9abb 4722 2b3e c07d c93e
000000e0: 81b3 9abe 4703 aa3e 9b7d c73e 1c98 b9be
000000f0: 5237 e7bc 6247 023e 0bda 373d 2cfe 87be
00000100: 0944 c33e 351f 863e 0299 a4bd 061b bdbe
00000110: 5459 c2be bec7 9e3d 739a d43c 5a92 8cbe
00000120: 524f 543d 7c20 d63e b9c8 cd3e 131d 1dbe
00000130: a791 5ebd bf44 0a3e 9e40 c43e f350 5a3c
00000140: c582 893d 1f2e 65be 9faa c0be cb53 a03e
00000150: 3d24 1e3e 9f3d 1e3e 9115 d13a d09d eabd
00000160: b672 4b3d 1f02 8bbe 17db 54be e4c6 553e
00000170: 988a c93e 6fbb ce3d e5e4 a23e 9ba4 153e
00000180: 5233 a23c 5b6e 973e 5658 52be 16c0 053e
00000190: 304d 85bc 45bc 97bd 1aff 07be c46b 833e
000001a0: 0d53 493e 465a d1be d9f0 9bbe 8241 d2bd
000001b0: 4ce8 b8be f9fc f3bd a6ef c3be 7f5d a43d
000001c0: 9250 ddbe 3d6e 32bd 0b3e 143e 703e 19be
000001d0: a0dd b63d 5e9a 2dbd 43c0 363d f96c 833e
000001e0: 865b 78be ef2b 66be 70a9 7f3d 0bf0 8abe
000001f0: b799 a63e d5a4 943e 3e7e cebd 4156 cc3e
00000200: 189f d2bd 9684 87be e6ee ccbe 4678 02bd
00000210: 9468 b4be 5817 8bbe 17a0 d8be ea57 a4be
00000220: 2338 683e 8d1a 933e 31af c23e 4876 143e
00000230: dc6f d33d 6002 49be c1c1 9ebe 600b 223d
00000240: 98a6 f2bc 2b2b a13e 24f7 3d3e f2a5 a7bd
00000250: 3d88 bbbe 6744 57be dee2 8cbe e4f8 173e
00000260: 584c bd3d 473b 903e 0b66 5c3d 740e 143e
00000270: 4c22 823e a50c ed3d 351c 49be c532 353e
00000280: b87b 8e3e a7f5 6ebd 9ee6 7b3e 4756 4f3e
00000290: cb35 e53d c585 a4be f6f4 d93e b1e2 2a3e
000002a0: d68b afbe 7eba 61be 4760 d3be b18c 3ebe
000002b0: 0d44 2bbe 19c6 753e ad7a 3a3d 9941 aebe
000002c0: a739 033e b485 ac3e 9cef e5bd 7237 34be
000002d0: bcd9 a93e 1762 a7be d01f 923e 5066 c6be
000002e0: 0900 fabc 38f4 84be f443 3abe 2e5d 713b
000002f0: 8c4f 7abd 44c5 bcbe f7d9 d4be 7af0 2f3e
00000300: 16b1 cf3e f285 99be dac6 8d3d 949b 1cbe
00000310: 5269 ad3e 6b69 873e 9b3f cfbe 2ef5 853e
00000320: 9b75 da3e f802 853e 37ad 8e3e 9076 e1bd
00000330: 18ea aebe ba8f bdbe 5af0 0c3c 1b21 033e
00000340: ca36 df3d 33f1 c23d 300d 7fbe 99ab 93be
00000350: 9ef8 143e 6dde 8d3d 00f5 5139 9c73 cc3e
00000360: 2695 0fbd 950e 25be 1405 babe 11e1 223d
00000370: f200 203d 5da3 3f3e 2e0c 553e a327 1c3e
00000380: 3a69 93be 3006 be3e cef3 0a3e 517b d0be
00000390: 4663 ddbe 1d83 7fbd b8b1 f2bd aecc b9be
000003a0: ef6f d83e 32f2 bcbd 956b c3bd c8b4 d43e
000003b0: 02e2 94be 208f 5cbd f2d7 633e 488a 713e
000003c0: 939e ccbd 71ac f23d 3e2b c13d 2bdf bebe
000003d0: 55f4 c63d 1528 a23e ebe0 b63e b5d9 c03e
000003e0: 2c78 cfbe c51f ee3d 789b 9cbe 64a8 02bd
000003f0: 00ed 92be 025a 8bbe bbfa 4dbe b391 a4be
-0.21914862 -0.38944185 -0.19119103 0.03292 0.2974146 0.10952884 0.4126746 -0.21759185
-0.14968 0.14457373 -0.37258568 -0.28239202 -0.3845077 0.3947937 0.030860346 0.08132084
0.096996896 0.40881622 -0.16422194 -0.13655682 0.3839896 -0.32624647 -0.058054958 0.118710384
-0.15094627 0.007456539 0.19602837 -0.28466365 -0.07712384 0.048828915 0.19555776 -0.3726102
0.2835655 -0.1399866 0.059791837 -0.28313962 -0.29481867 0.062205084 0.19144805 0.08720836
0.3202081 0.18116055 -0.19372657 -0.37423828 0.12884472 0.36346963 -0.29886007 0.3106705
-0.15366831 0.010617644 0.032206055 0.38905498 0.0502998 -0.0047053425 0.16712295 0.39353752
-0.30215076 0.33205625 0.38963017 -0.36248863 -0.028224621 0.12722543 0.044885676 -0.26561105
0.38137844 0.26195684 -0.080369964 -0.3693468 -0.37958777 0.077529415 0.025952553 -0.27455407
0.05183346 0.4182166 0.40192202 -0.15343122 -0.054338124 0.13502787 0.3833055 0.013324964
0.067143954 -0.22380875 -0.37630174 0.3131393 0.15443511 0.15453194 0.0015951862 -0.114558816
0.049669944 -0.27150056 -0.20786701 0.20876652 0.3936355 0.10094344 0.31815258 0.14613573
0.019799862 0.29576382 -0.2054151 0.13061556 -0.016272157 -0.074089564 -0.13280907 0.25668156
0.19660588 -0.40889186 -0.3045719 -0.10266401 -0.36114728 -0.11913485 -0.38268775 0.080256455
-0.43225533 -0.043562163 0.14476793 -0.14965224 0.0892899 -0.042383544 0.04461695 0.25669077
-0.24253663 -0.22477697 0.062417448 -0.27136263 0.3253915 0.29032007 -0.100826725 0.39909557
-0.10284251 -0.26468343 -0.40026015 -0.031852983 -0.35236037 -0.27166247 -0.4230964 -0.32098323
0.22677664 0.28731194 0.38024285 0.14498246 0.1032407 -0.19629812 -0.31007197 0.03956163
-0.029620454 0.31478247 0.18551308 -0.081859484 -0.3662738 -0.21022187 -0.27516836 0.14841038
0.09243077 0.28170225 0.053808253 0.14458638 0.2541679 0.115746774 -0.19639666 0.17695148
0.27828765 -0.05833974 0.24599692 0.20247756 0.11191901 -0.32133308 0.42569703 0.16688038
-0.34286374 -0.22043797 -0.4128439 -0.18608357 -0.16725178 0.2400135 0.04552715 -0.34034422
0.12814961 0.33695757 -0.112273425 -0.17599276 0.3317393 -0.32692024 0.28539896 -0.38749933
-0.030517595 -0.25967574 -0.18189985 0.003682922 -0.061111018 -0.36869252 -0.41572544 0.17181578
0.40564793 -0.29985005 0.069226936 -0.15293723 0.33869416 0.26447615 -0.40478215 0.2616362
0.4266785 0.25978827 0.27866527 -0.11008942 -0.34162974 -0.37023717 0.008602226 0.12805597
0.10899122 0.09518661 -0.24907374 -0.28841856 0.14547965 0.0692719 0.00020023063 0.39931953
-0.03505435 -0.16118844 -0.36332 0.03976542 0.0390634 0.18714662 0.20805427 0.15249495
-0.2879122 0.37114096 0.13569567 -0.40719083 -0.43239802 -0.0623809 -0.118503034 -0.3628897
0.422729 -0.092258826 -0.09542004 0.41544175 -0.2907868 -0.053847432 0.22250345 0.23587906
-0.09991183 0.11849297 0.09432076 -0.3727964 0.097145714 0.31671205 0.35718474 0.37666097
-0.4052137 0.11627153 -0.30587363 -0.03189887 -0.28696442 -0.27217108 -0.20115177 -0.3214241

bias f4 [16]
00000000: 4802 15bd f822 3abd 3251 0ebe 0c3d 5d3e
00000010: 109c b8bd a8dc 5dbd b442 da3d 5420 183e
00000020: a043 53be 5074 793d 94bf 333e 30a2 9f3d
00000030: 803c 3e3e 5827 6cbd 6089 863d b89c 65be
-0.03637913 -0.045443505 -0.13898161 0.21605319 -0.090141416 -0.054165512 0.10657254 0.14856082
-0.20631266 0.06090194 0.1755355 0.07794607 0.18577766 -0.05765471 0.06569171 -0.22423065

a_2 f4 [16]
00000000: b0bf 913f 20ff 743f be77 723f f7b8 283f
00000010: 5e34 663f fef7 6f3f f938 873f 315e 6e3f
00000020: 0049 4a3f 1de8 6c3f 0f45 733f 7d1e 063f
00000030: c05a 5d3f 9809 763f 7cac 5c3f 7921 6e3f
1.1386623 0.9570179 0.9471396 0.65907234 0.89923656 0.9373778 1.0564262 0.93112475
0.7901764 0.92541677 0.9502725 0.5239027 0.864666 0.9610839 0.8620069 0.93019825

b_2 f4 [16]
00000000: bfd0 ba3c b413 6a3d 0f3b 82bd c84f e5bc
00000010: bb3c aabc fb58 d03c d36e 0ebd 0b72 83bc
00000020: a30f 243d 23bb cdbb 2d1b 5e3c fe27 04ba
00000030: 90b2 043c a84b 553c 1152 ddbc 95b8 3ebc
0.022804616 0.057147697 -0.06358921 -0.027992144 -0.020780912 0.025433054 -0.03477366 -0.01604559
0.040053975 -0.006278412 0.013556284 -0.00050413597 0.008099213 0.013018526 -0.027016671 -0.0116406875

a_2 f4 [16]
00000000: 0000 803f 0000 803f 0000 803f 0000 803f
00000010: 0000 803f 0000 803f 0000 803f 0000 803f
00000020: 0000 803f 0000 803f 0000 803f 0000 803f
00000030: 0000 803f 0000 803f 0000 803f 0000 803f
1.0 1.0 1.0 1.0 1.0 1.0 1.0 1.0
1.0 1.0 1.0 1.0 1.0 1.0 1.0 1.0

b_2 f4 [16]
00000000: 0000 0000 0000 0000 0000 0000 0000 0000
00000010: 0000 0000 0000 0000 0000 0000 0000 0000
00000020: 0000 0000 0000 0000 0000 0000 0000 0000
00000030: 0000 0000 0000 0000 0000 0000 0000 0000
0.0 0.0 0.0 0.0 0.0 0.0 0.0 0.0
0.0 0.0 0.0 0.0 0.0 0.0 0.0 0.0

a_2 f4 [16]
00000000: b88f 9d3f 6cd4 693f e65d b33e b9b1 203f
00000010: f34f 7c3f 38a4 6c3f 53e7 763f dd29 7b3f
00000020: 2eb3 553f 56d8 643f feec 753f 7603 193f
00000030: 7f41 663f 3b14 793f 8293 503f bfb7 6e3f
1.2309484 0.91339755 0.35032576 0.62771183 0.9855949 0.9243808 0.9644672 0.98110753
0.8347653 0.893926 0.96064746 0.59770906 0.8994369 0.97296494 0.8147508 0.93249124

b_2 f4 [16]
00000000: c70c 20bd 3b53 fa3c 98cc 953c 36b2 afbc
00000010: bc34 f23c cab6 be3c e86b f13c a0db f2bc
00000020: c742 b33c 6296 d6bc 059e e33c 5f62 ae3a
00000030: 9e90 e73c de60 e83c 1017 a2bc 29bf d2bc
-0.039074685 0.030557266 0.018286034 -0.021447282 0.029566161 0.02328052 0.029470399 -0.029645741
0.021882428 -0.026194755 0.02778531 0.0013304463 0.028267201 0.028366502 -0.019786388 -0.025725918
